lightning_logs/version_0/checkpoints/epoch=6-step=14.ckpt (torch, 6235 bytes, 4 tensors)

encoder.weight f4 [20, 10]
-0.124652416 -0.23075742 -0.017715313 -0.18602507 -0.030631421 -0.012521305 0.063163236 -0.2679053
0.09643501 0.29113984 0.17489965 0.2622468 0.071035825 0.24724346 0.25623167 0.2607166
-0.14058924 -0.2674828 0.23479661 -0.260111 0.15072578 -0.09427729 -0.19908111 -0.18352129
-0.20597093 -0.04855433 0.14719976 -0.21538673 0.035749014 0.22992171 0.21772234 -0.07555215
-0.22492068 0.042379856 0.17628424 -0.13301356 -0.3005561 -0.08251823 -0.19627926 -0.09513827
0.14447403 0.07989084 -0.18953314 -0.2597186 0.14881475 0.160975 0.18983525 0.16263027
0.19954716 0.26877376 0.098223224 0.31177503 0.16410135 -0.09443736 0.18328549 -0.21513054
0.065696 -0.24105813 0.23877084 -0.07692595 -0.29833955 -0.17394102 0.31276655 0.19455886
-0.027532892 0.24664024 -0.2779233 -0.06932539 -0.11749834 -0.20916283 0.29783744 -0.23460077
0.13162836 0.27759567 0.2471744 -0.21572804 -0.30712178 0.16697338 0.14702824 0.19582798
0.20219105 0.16898581 -0.15122867 -0.2798558 0.10937548 0.1284322 -0.09363286 0.2653001
0.13836533 0.30040807 0.16039732 -0.27612418 -0.23676388 -0.10979372 0.18161957 -0.24096732
-0.053231433 0.3110335 -0.25540712 -0.032918856 0.0032437763 0.24482726 0.24421169 0.26861516
-0.26386434 0.18869992 0.09993969 0.3129773 0.23062824 0.24128386 -0.16459699 0.26214376
-0.19607377 0.013245017 0.10828987 -0.07483055 0.3083192 0.28549248 0.00039853572 -0.047773056
0.05145985 0.2984053 0.3027704 0.15267153 0.16835205 -0.22573493 0.07270777 -0.11732335
0.03980962 0.24661022 -0.058130044 0.04532066 -0.049130272 -0.09342813 -0.19266243 0.13119546
0.24859333 -0.18508832 0.029658567 0.0740533 -0.22272444 0.26466122 -0.120956115 -0.26581565
-0.18063225 -0.28165245 -0.117695644 -0.005572036 -0.038861908 -0.12466968 0.10385863 0.19643317
0.2993249 0.24734068 -0.10129321 0.16676025 0.26295146 0.25402075 0.14726317 0.045770425
0.060386002 0.30400956 -0.088988066 -0.08734518 -0.11126765 -0.04726324 0.033454042 -0.18136169
-0.083419494 0.18793876 -0.009084556 0.22858316 0.0023488048 0.096285395 -0.013128834 0.09333856
-0.1785475 0.29749897 -0.037607607 -0.05812209 0.01422477 -0.23081174 -0.058479313 -0.2672638
0.033630352 -0.10962499 0.13863641 0.03780657 0.26220322 0.23708434 0.04061223 -0.08183376
-0.12083288 -0.12986535 -0.09719861 -0.24906813 -0.110494934 0.1226007 0.08610245 -0.07884938
00000000: c449 ffbd ac4b 6cbe b41f 91bc 5b7d 3ebe
00000010: bfee fabc 2926 4dbc ba5b 813d e22a 89be
00000020: b87f c53d 4810 953e e518 333e 3645 863e
00000030: 3b7b 913d 642d 7d3e cc30 833e a57c 853e
00000040: a0f6 0fbe 81f3 88be 866e 703e 452d 85be
00000050: dc57 1a3e 7414 c1bd ebdb 4bbe 01ed 3bbe
00000060: 0bea 52be e8e0 46bd 89bb 163e 578e 5cbe
00000070: 8f6d 123d 9970 6b3e 9bf2 5e3e 16bb 9abd
00000080: 9b51 66be 8096 2d3d db83 343e b534 08be
00000090: 7de2 99be 51ff a8bd 6efd 48be dad7 c2bd
000000a0: 00f1 133e cf9d a33d fa14 42be d6f9 84be
000000b0: e562 183e a1d6 243e 2c64 423e 8d88 263e
000000c0: 1756 4c3e b79c 893e 4229 c93d faa0 9f3e
000000d0: 2f0a 283e 6068 c1bd 31af 3b3e 2e4b 5cbe
000000e0: a08b 863d f1d7 76be 5880 743e 5a8b 9dbd
000000f0: f6bf 98be 981d 32be f022 a03e 703a 473e
00000100: a98c e1bc 428f 7c3e f64b 8ebe 78fa 8dbd
00000110: f8a2 f0bd c82e 56be 267e 983e 2f3b 70be
00000120: 96c9 063e 0521 8e3e 491b 7d3e d0e7 5cbe
00000130: 113f 9dbe 12fb 2a3e 928e 163e 2187 483e
00000140: 2c0b 4f3e 9e0a 2d3e b0db 1abe 4249 8fbe
00000150: 4000 e03d bb83 033e 96c2 bfbd 6ad5 873e
00000160: a4af 0d3e 16cf 993e 323f 243e 2660 8dbe
00000170: 3b72 72be 88db e0bd 7bfa 393e 23c0 76be
00000180: 3409 5abd c83f 9f3e b9c4 82be ecd5 06bd
00000190: 8995 543b ffb3 7a3e a112 7a3e ed87 893e
000001a0: 3a19 87be 8d3a 413e 2ead cc3d 903e a03e
000001b0: cf29 6c3e 1e13 773e 1d8c 28be b537 863e
000001c0: 90c7 48be a101 593c 14c7 dd3d c240 99bd
000001d0: 04dc 9d3e 122c 923e 8ff2 d039 aead 43bd
000001e0: 90c7 523d 94c8 983e b904 9b3e ed55 1c3e
000001f0: 7b64 2c3e 0f27 67be d0e7 943d 3947 f0bd
00000200: 690f 233d 6487 7c3e c519 6ebd 28a2 393d
00000210: d33c 49bd 3f57 bfbd 4d49 45be 1a58 063e
00000220: 408f 7e3e cb87 3dbe 86f6 f23c 42a9 973d
00000230: e011 64be ad81 873e d7b7 f7bd fd18 88be
00000240: a9f7 38be c034 90be 6a0a f1bd a095 b6bb
00000250: aa2d 1fbd d152 ffbd d5b3 d43d c725 493e
00000260: 1d41 993e e046 7d3e d172 cfbd 33c3 2a3e
00000270: 93a1 863e 020f 823e 28cc 163e c579 3b3d
00000280: 5057 773d 24a7 9b3e 603f b6bd 08e2 b2bd
00000290: 4be0 e3bd 1997 41bd 1b07 093d e1b6 39be
000002a0: d7d7 aabd 0573 403e 64d7 14bc b411 6a3e
000002b0: 68ee 193b 4731 c53d 521a 57bc 4928 bf3d
000002c0: 28d5 36be c951 983e 6f0a 1abd 6e11 6ebd
000002d0: 020f 693c ea59 6cbe 0188 6fbd cdd6 88be
000002e0: fbbf 093d 1183 e0bd b4f6 0d3e 10db 1a3d
000002f0: 803f 863e 3dc6 723e 0259 263d 7598 a7bd
00000300: 3b77 f7bd 6cfb 04be 1110 c7bd b70b 7fbe
00000310: 2b4b e2bd 1316 fb3d 7b56 b03d c97b a1bd

encoder.bias f4 [20]
0.20862138 0.1596344 -0.1726941 -0.14992562 0.21747972 -0.27215242 0.22664842 -0.032490425
-0.28951323 -0.004649621 0.19783913 -0.24407396 0.2319568 -0.13818197 0.2718695 0.24256296
-0.19740003 -0.047459755 0.07139961 -0.20459169
00000000: d8a0 553e 3377 233e b9d6 30be 1a86 19be
00000010: 01b3 5e3e 9057 8bbe 8616 683e ae14 05bd
00000020: 143b 94be d95b 98bb 5796 4a3e 86ee 79be
00000030: 1586 6d3e 937f 0dbe 7b32 8b3e 6d62 783e
00000040: 3c23 4abe 2965 42bd f539 923d 7c80 51be

classifier.weight f4 [20, 10]
0.2111594 0.31609258 -0.30273646 0.025540063 0.031760983 0.023981882 0.2153631 0.28491187
0.26258674 -0.28931862 -0.07194297 0.29744968 -0.25785744 -0.02673861 0.24276996 0.009074265
-0.101697065 -0.30102876 -0.09746686 -0.21804677 -0.25085235 0.3011411 -0.27160966 -0.07225997
-0.2651398 -0.21816407 -0.008153245 -0.18558635 -0.035056893 0.078325614 -0.25063905 -0.06467697
0.008330572 0.11463869 -0.051979773 -0.23959208 -0.21454328 -0.071941726 0.15954347 0.11559734
-0.31565073 0.05673491 0.045027863 -0.27154243 -0.24489036 -0.15900335 0.120238855 0.03270413
0.118928835 -0.15443772 0.16757865 -0.2252382 0.2693651 -0.07423071 0.15293202 0.02112213
-0.14355564 0.11535781 0.27192372 -0.26562056 -0.1400486 0.2670705 0.30915356 0.23657128
0.19532375 -0.2777857 -0.2836339 0.11162208 -0.25391972 -0.16221678 -0.016765265 0.2428178
-0.14540295 -0.077429816 -0.16038771 0.26734197 -0.26294547 -0.29207662 0.1058749 0.21262155
-0.25689167 0.28932053 0.120052926 -0.24391913 0.036344595 -0.31144327 -0.2765377 -0.19583608
0.25879425 -0.23808324 -0.03240206 0.2871553 0.07883965 -0.08387036 0.26130554 0.30112174
-0.05865253 -0.3155865 -0.30689928 -0.23136488 0.2425298 0.11862051 -0.14922272 -0.22005203
0.2607084 -0.13241225 -0.030775538 -0.20785002 0.037701774 0.019733513 0.18844451 0.043934945
0.22132519 -0.19827382 -0.13002239 0.04707132 -0.31039014 -0.22424956 0.05814882 -0.114760496
0.07727827 -0.049005494 -0.22555923 0.20172673 0.0680695 0.12507352 -0.18199654 -0.16191268
0.25826812 -0.2388514 0.14929724 0.23609005 0.15644577 -0.1898406 0.074684545 0.045657784
-0.17418714 0.21084669 -0.04945688 -0.014441303 -0.2191617 -0.28868687 0.27265114 -0.24335495
-0.17007825 0.08937144 -0.28065303 0.21466188 -0.23161915 0.074791566 -0.05888908 0.19257018
-0.048504118 -0.046923548 0.3119315 0.06990751 0.04461278 0.09991749 0.010958903 -0.29868436
0.24030574 -0.08790144 -0.22340049 -0.06598959 -0.1892753 0.24404052 0.014225147 -0.29512998
-0.14821643 0.27649438 0.013220853 0.30636963 0.19429962 0.25357556 0.13630672 0.17711698
0.12074984 -0.28626075 0.2601423 -0.13272242 -0.046812188 -0.11116791 -0.1592918 0.12795267
-0.014169882 0.27929008 0.04045741 0.2525794 0.026681386 0.053463347 0.29090005 -0.05438041
-0.059264205 0.090112045 0.26465225 -0.028592411 0.28803647 0.12882131 0.13345598 -0.23171368
00000000: 2b3a 583e e3d6 a13e 4600 9bbe 6539 d13c
00000010: ce17 023d a775 c43c 2588 5c3e f8df 913e
00000020: c571 863e 9221 94be d656 93bd 534b 983e
00000030: e405 84be ee0a dbbc b098 783e 3aac 143c
00000040: 8d46 d0bd 7120 9abe b59c c7bd a747 5fbe
00000050: b86f 80be 2b2f 9a3e 6c10 8bbe 09fd 93bd
00000060: 67c0 87be 6766 5fbe 3095 05bc 590a 3ebe
00000070: d197 0fbd 2e69 a03d c353 80be 5c75 84bd
00000080: f47c 083c b1c7 ea3d bee8 54bd a057 75be
00000090: 3cb1 5bbe 2f56 93bd 5d5f 233e 4cbe ec3d
000000a0: f99c a1be dd62 683d 236f 383d 9c07 8bbe
000000b0: 8ac4 7abe c6d1 22be ca3f f63d c4f4 053d
000000c0: f690 f33d ec24 1ebe bd99 2b3e d8a4 66be
000000d0: 39ea 893e 4506 98bd 369a 1c3e 5108 ad3c
000000e0: 4000 13be b740 ec3d 9639 8b3e 6bff 87be
000000f0: e668 0fbe 77bd 883e 6049 9e3e be3f 723e
00000100: f302 483e ed39 8ebe 7638 91be 1e9a e43d
00000110: c401 82be 281c 26be 4f57 89bc 3ba5 783e
00000120: 83e4 14be 8693 9ebd ad3c 24be 0ce1 883e
00000130: caa0 86be 118b 95be f1d4 d83d 77b9 593e
00000140: 4e87 83be d221 943e 4fde f53d f0c5 79be
00000150: 12de 143d 7e75 9fbe 5996 8dbe 4189 48be
00000160: ae80 843e 18cc 73be 06b8 04bd 0506 933e
00000170: af76 a13d 39c4 abbd d7c9 853e a12c 9a3e
00000180: a33d 70bd 8e94 a1be e721 9dbe eaea 6cbe
00000190: bb59 783e 4fef f23d d7cd 18be 5255 61be
000001a0: 927b 853e 1497 07be fb1c fcbc a3d6 54be
000001b0: 2d6d 1a3d 2da8 a13c 99f7 403e 21f5 333d
000001c0: 12a3 623e 4b08 4bbe 9724 05be dbcd 403d
000001d0: 75eb 9ebe ada1 65be 752d 6e3d 8d07 ebbd
000001e0: 1244 9e3d fcb9 48bd 00f9 66be 7491 4e3e
000001f0: 0668 8b3d 4613 003e 4d5d 3abe 70cc 25be
00000200: b83b 843e 7695 74be 60e1 183e 97c1 713e
00000210: 5233 203e 9365 42be 36f4 983d a803 3b3d
00000220: 1d5e 32be 32e8 573e 4c93 4abd 379b 6cbc
00000230: ed6b 60be c4ce 93be ee98 8b3e 0a32 79be
00000240: fe28 2ebe 6008 b73d c1b1 8fbe 53d0 5b3e
00000250: 922d 6dbe 522c 993d ad35 71bd 1e31 453e
00000260: 41ac 46bd e832 40bd 7cb5 9f3e ab2b 8f3d
00000270: e4bb 363d 8aa1 cc3d f88c 333c 28ed 98be
00000280: b512 763e ac05 b4bd 19c3 64be 8d25 87bd
00000290: 62d1 41be c2e5 793e 9710 693c 471b 97be
000002a0: 0cc6 17be ac90 8d3e 479c 583c 7bdc 9c3e
000002b0: 7bf6 463e a8d4 813e fd93 0b3e 275e 353e
000002c0: b14b f73d c590 92be 5f31 853e 63e8 07be
000002d0: 23be 3fbd 00ac e3bd 641d 23be 0606 033e
000002e0: cb28 68bc 1cff 8e3e abb6 253d 1652 813e
000002f0: ec92 da3c 62fc 5a3d daf0 943e febd 5ebd
00000300: 06bf 72bd aa8c b83d 8080 873e a23a eabc
00000310: 8479 933e bce9 033e afa8 083e 5a46 6dbe

classifier.bias f4 [20]
0.17974094 -0.00954156 0.18098004 -0.09051522 0.28667295 0.28408888 -0.111532554 -0.16120705
-0.31047797 -0.28391358 0.02106449 0.13896577 0.1599376 0.22857071 0.20368874 -0.028768007
0.106283695 -0.027662985 -0.2682707 -0.018296491
00000000: 020e 383e 3454 1cbc d552 393e 0b60 b9bd
00000010: ccc6 923e 1974 913e 2e6b e4bd 7613 25be
00000020: f8f6 9ebe 1f5d 91be 708f ac3c 0b4d 0e3e
00000030: afc6 233e 710e 6a3e c893 503e e2aa ebbc
00000040: 44ab d93d 7c9d e2bc c75a 89be 86e2 95bc
